…
            "<tensorflow.python.keras.layers.convolutional.Conv2D object at 0x7fdfb4294358> True\n",
            "<tensorflow.python.keras.layers.pooling.MaxPooling2D object at 0x7fe00bd0fac8> True\n",
            "Model: \"vgg19\"\n",
            "_________________________________________________________________\n",
            "Layer (type)                 Output Shape              Param #   \n",
            "=================================================================\n",
            "input_2 (InputLayer)         [(None, 150, 150, 3)]     0         \n",
            "_________________________________________________________________\n",
            "block1_conv1 (Conv2D)        (None, 150, 150, 64)      1792      \n",
            "_________________________________________________________________\n",
            "block1_conv2 (Conv2D)        (None, 150, 150, 64)      36928     \n",
            "_________________________________________________________________\n",
            "block1_pool (MaxPooling2D)   (None, 75, 75, 64)        0         \n",
            "_________________________________________________________________\n",
            "block2_conv1 (Conv2D)        (None, 75, 75, 128)       73856     \n",
            "_________________________________________________________________\n",
            "block2_conv2 (Conv2D)        (None, 75, 75, 128)       147584    \n",
            "_________________________________________________________________\n",
            "block2_pool (MaxPooling2D)   (None, 37, 37, 128)       0         \n",
            "_________________________________________________________________\n",
            "block3_conv1 (Conv2D)        (None, 37, 37, 256)       295168    \n",
            "_________________________________________________________________\n",
            "block3_conv2 (Conv2D)        (None, 37, 37, 256)       590080    \n",
            "_________________________________________________________________\n",
            "block3_conv3 (Conv2D)        (None, 37, 37, 256)       590080    \n",
            "_________________________________________________________________\n",
            "block3_conv4 (Conv2D)        (None, 37, 37, 256)       590080    \n",
            "_________________________________________________________________\n",
            "block3_pool (MaxPooling2D)   (None, 18, 18, 256)       0         \n",
            "_________________________________________________________________\n",
            "block4_conv1 (Conv2D)        (None, 18, 18, 512)       1180160   \n",
            "_________________________________________________________________\n",
            "block4_conv2 (Conv2D)        (None, 18, 18, 512)       2359808   \n",
            "_________________________________________________________________\n",
            "block4_conv3 (Conv2D)        (None, 18, 18, 512)       2359808   \n",
            "_________________________________________________________________\n",
            "block4_conv4 (Conv2D)        (None, 18, 18, 512)       2359808   \n",
            "_________________________________________________________________\n",
            "block4_pool (MaxPooling2D)   (None, 9, 9, 512)         0         \n",
            "_________________________________________________________________\n",
            "block5_conv1 (Conv2D)        (None, 9, 9, 512)         2359808   \n",
            "_________________________________________________________________\n",
            "block5_conv2 (Conv2D)        (None, 9, 9, 512)         2359808   \n",
            "_________________________________________________________________\n",
            "block5_conv3 (Conv2D)        (None, 9, 9, 512)         2359808   \n",
            "_________________________________________________________________\n",
            "block5_conv4 (Conv2D)        (None, 9, 9, 512)         2359808   \n",
            "_________________________________________________________________\n",
            "block5_pool (MaxPooling2D)   (None, 4, 4, 512)         0         \n",
            "=================================================================\n",
            "Total params: 20,024,384\n",
            "Trainable params: 7,079,424\n",
            "Non-trainable params: 12,944,960\n",
            "_________________________________________________________________\n"
          ],
          "name": "stdout"
        }
      ]
    },
    {
      "cell_type": "code",
…
